global_model.pth (torch, 2061 bytes, 2 tensors)

fc.weight f4 [2, 10]
0	0x3df535ac	0.11973128
1	0xbdbc30a4	-0.09188965
2	0xbe1db39e	-0.1540055
3	0x3e5b2314	0.214001
4	0xbe8b1cd2	-0.27170426
5	0x3e9a6c10	0.3016057
6	0x3db7ca7a	0.08974166
7	0xbc519da4	-0.012793932
8	0xbc64556e	-0.013936384
9	0x3e098602	0.13430026
10	0x3e8afd64	0.27146447
11	0xbd76dc43	-0.06026865
12	0x3db61764	0.0889118
13	0xbe16a766	-0.14712295
14	0x3d599ce2	0.05312813
15	0x3e3988c0	0.18118572
16	0xbe61e91e	-0.22061583
17	0xbe944db7	-0.28965542
18	0x3e25a20f	0.16175102
19	0x3e31b832	0.17355421

fc.bias f4 [2]
0	0xbdcd7b82	-0.10033323
1	0x3d2887b4	0.04114504
