global_model.pth (torch, 2061 bytes, 2 tensors)

fc.weight f4 [2, 10]
00000000: 801b 5437 5eaa c23c 93cd 8b3d 8a73 853e
00000010: 41bf c93d 62e7 683e 86ce a23c 2476 95be
00000020: b8d8 d93d 1efd 8abe ec05 c13c 03e7 933e
00000030: ff08 32be 8cab 903e 62d3 023e f45a 903e
00000040: 7413 bc3d 1799 ce3d 2ac3 c0bd c486 97be
1.26425875e-05 0.023762878 0.068263195 0.26064712 0.09850932 0.22744516 0.019873869 -0.29191697
0.10637039 -0.27146238 0.023562394 0.28887185 -0.17386244 0.2825588 0.12775949 0.28194392
0.09183398 0.10087793 -0.094122246 -0.29595006

fc.bias f4 [2]
00000000: 7da3 e23d 7b2e a1bd
0.11066339 -0.078701936
